{"class_name": "Model", "config": {"name": "model_1", "layers": [{"name": "input_1", "class_name": "InputLayer", "config": {"batch_input_shape": [null, null, null, null, 1], "dtype": "float32", "sparse": false, "name": "input_1"}, "inbound_nodes": []}, {"name": "gaussian_noise_1", "class_name": "GaussianNoise", "config": {"name": "gaussian_noise_1", "trainable": true, "stddev": 0.1}, "inbound_nodes": [[["input_1", 0, 0, {}]]]}, {"name": "conv3d_1", "class_name": "Conv3D", "config": {"name": "conv3d_1", "trainable": true, "filters": 36, "kernel_size": [7, 7, 7], "strides": [1, 1, 1], "padding": "same", "data_format": "channels_last", "dilation_rate": [1, 1, 1], "activation": "linear", "use_bias": true, "kernel_initializer": {"class_name": "VarianceScaling", "config": {"scale": 1.0, "mode": "fan_avg", "distribution": "uniform", "seed": null}}, "bias_initializer": {"class_name": "Zeros", "config": {}}, "kernel_regularizer": null, "bias_regularizer": null, "activity_regularizer": null, "kernel_constraint": null, "bias_constraint": null}, "inbound_nodes": [[["gaussian_noise_1", 0, 0, {}]]]}, {"name": "batch_normalization_1", "class_name": "BatchNormalization", "config": {"name": "batch_normalization_1", "trainable": true, "axis": -1, "momentum": 0.99, "epsilon": 0.001, "center": true, "scale": true, "beta_initializer": {"class_name": "Zeros", "config": {}}, "gamma_initializer": {"class_name": "Ones", "config": {}}, "moving_mean_initializer": {"class_name": "Zeros", "config": {}}, "moving_variance_initializer": {"class_name": "Ones", "config": {}}, "beta_regularizer": null, "gamma_regularizer": null, "beta_constraint": null, "gamma_constraint": null}, "inbound_nodes": [[["conv3d_1", 0, 0, {}]]]}, {"name": "activation_1", "class_name": "Activation", "config": {"name": "activation_1", "trainable": true, "activation": "selu"}, "inbound_nodes": [[["batch_normalization_1", 0, 0, {}]]]}, {"name": "conv3d_3", "class_name": "Conv3D", "config": {"name": "conv3d_3", "trainable": true, "filters": 36, "kernel_size": [1, 1, 1], "strides": [1, 1, 1], "padding": "valid", "data_format": "channels_last", "dilation_rate": [1, 1, 1], "activation": "linear", "use_bias": true, "kernel_initializer": {"class_name": "VarianceScaling", "config": {"scale": 1.0, "mode": "fan_avg", "distribution": "uniform", "seed": null}}, "bias_initializer": {"class_name": "Zeros", "config": {}}, "kernel_regularizer": null, "bias_regularizer": null, "activity_regularizer": null, "kernel_constraint": null, "bias_constraint": null}, "inbound_nodes": [[["gaussian_noise_1", 0, 0, {}]]]}, {"name": "conv3d_2", "class_name": "Conv3D", "config": {"name": "conv3d_2", "trainable": true, "filters": 36, "kernel_size": [7, 7, 7], "strides": [1, 1, 1], "padding": "same", "data_format": "channels_last", "dilation_rate": [1, 1, 1], "activation": "linear", "use_bias": true, "kernel_initializer": {"class_name": "VarianceScaling", "config": {"scale": 1.0, "mode": "fan_avg", "distribution": "uniform", "seed": null}}, "bias_initializer": {"class_name": "Zeros", "config": {}}, "kernel_regularizer": null, "bias_regularizer": null, "activity_regularizer": null, "kernel_constraint": null, "bias_constraint": null}, "inbound_nodes": [[["activation_1", 0, 0, {}]]]}, {"name": "batch_normalization_3", "class_name": "BatchNormalization", "config": {"name": "batch_normalization_3", "trainable": true, "axis": -1, "momentum": 0.99, "epsilon": 0.001, "center": true, "scale": true, "beta_initializer": {"class_name": "Zeros", "config": {}}, "gamma_initializer": {"class_name": "Ones", "config": {}}, "moving_mean_initializer": {"class_name": "Zeros", "config": {}}, "moving_variance_initializer": {"class_name": "Ones", "config": {}}, "beta_regularizer": null, "gamma_regularizer": null, "beta_constraint": null, "gamma_constraint": null}, "inbound_nodes": [[["conv3d_3", 0, 0, {}]]]}, {"name": "batch_normalization_2", "class_name": "BatchNormalization", "config": {"name": "batch_normalization_2", "trainable": true, "axis": -1, "momentum": 0.99, "epsilon": 0.001, "center": true, "scale": true, "beta_initializer": {"class_name": "Zeros", "config": {}}, "gamma_initializer": {"class_name": "Ones", "config": {}}, "moving_mean_initializer": {"class_name": "Zeros", "config": {}}, "moving_variance_initializer": {"class_name": "Ones", "config": {}}, "beta_regularizer": null, "gamma_regularizer": null, "beta_constraint": null, "gamma_constraint": null}, "inbound_nodes": [[["conv3d_2", 0, 0, {}]]]}, {"name": "add_5", "class_name": "Add", "config": {"name": "add_5", "trainable": true}, "inbound_nodes": [[["batch_normalization_3", 0, 0, {}], ["batch_normalization_2", 0, 0, {}]], [["batch_normalization_7", 0, 0, {}], ["batch_normalization_6", 0, 0, {}]], [["batch_normalization_11", 0, 0, {}], ["batch_normalization_10", 0, 0, {}]], [["batch_normalization_15", 0, 0, {}], ["batch_normalization_14", 0, 0, {}]], [["batch_normalization_19", 0, 0, {}], ["batch_normalization_18", 0, 0, {}]], [["batch_normalization_23", 0, 0, {}], ["batch_normalization_22", 0, 0, {}]], [["batch_normalization_27", 0, 0, {}], ["batch_normalization_26", 0, 0, {}]], [["batch_normalization_31", 0, 0, {}], ["batch_normalization_30", 0, 0, {}]], [["batch_normalization_35", 0, 0, {}], ["batch_normalization_34", 0, 0, {}]], [["batch_normalization_39", 0, 0, {}], ["batch_normalization_38", 0, 0, {}]], [["batch_normalization_43", 0, 0, {}], ["batch_normalization_42", 0, 0, {}]]]}, {"name": "activation_2", "class_name": "Activation", "config": {"name": "activation_2", "trainable": true, "activation": "selu"}, "inbound_nodes": [[["add_5", 0, 0, {}]]]}, {"name": "conv3d_4", "class_name": "Conv3D", "config": {"name": "conv3d_4", "trainable": true, "filters": 9, "kernel_size": [1, 1, 1], "strides": [1, 1, 1], "padding": "valid", "data_format": "channels_last", "dilation_rate": [1, 1, 1], "activation": "linear", "use_bias": true, "kernel_initializer": {"class_name": "VarianceScaling", "config": {"scale": 1.0, "mode": "fan_avg", "distribution": "uniform", "seed": null}}, "bias_initializer": {"class_name": "Zeros", "config": {}}, "kernel_regularizer": null, "bias_regularizer": null, "activity_regularizer": null, "kernel_constraint": null, "bias_constraint": null}, "inbound_nodes": [[["activation_2", 0, 0, {}]]]}, {"name": "batch_normalization_4", "class_name": "BatchNormalization", "config": {"name": "batch_normalization_4", "trainable": true, "axis": -1, "momentum": 0.99, "epsilon": 0.001, "center": true, "scale": true, "beta_initializer": {"class_name": "Zeros", "config": {}}, "gamma_initializer": {"class_name": "Ones", "config": {}}, "moving_mean_initializer": {"class_name": "Zeros", "config": {}}, "moving_variance_initializer": {"class_name": "Ones", "config": {}}, "beta_regularizer": null, "gamma_regularizer": null, "beta_constraint": null, "gamma_constraint": null}, "inbound_nodes": [[["conv3d_4", 0, 0, {}]]]}, {"name": "activation_3", "class_name": "Activation", "config": {"name": "activation_3", "trainable": true, "activation": "selu"}, "inbound_nodes": [[["batch_normalization_4", 0, 0, {}]]]}, {"name": "conv3d_5", "class_name": "Conv3D", "config": {"name": "conv3d_5", "trainable": true, "filters": 9, "kernel_size": [3, 3, 3], "strides": [1, 1, 1], "padding": "same", "data_format": "channels_last", "dilation_rate": [1, 1, 1], "activation": "linear", "use_bias": true, "kernel_initializer": {"class_name": "VarianceScaling", "config": {"scale": 1.0, "mode": "fan_avg", "distribution": "uniform", "seed": null}}, "bias_initializer": {"class_name": "Zeros", "config": {}}, "kernel_regularizer": null, "bias_regularizer": null, "activity_regularizer": null, "kernel_constraint": null, "bias_constraint": null}, "inbound_nodes": [[["activation_3", 0, 0, {}]]]}, {"name": "batch_normalization_5", "class_name": "BatchNormalization", "config": {"name": "batch_normalization_5", "trainable": true, "axis": -1, "momentum": 0.99, "epsilon": 0.001, "center": true, "scale": true, "beta_initializer": {"class_name": "Zeros", "config": {}}, "gamma_initializer": {"class_name": "Ones", "config": {}}, "moving_mean_initializer": {"class_name": "Zeros", "config": {}}, "moving_variance_initializer": {"class_name": "Ones", "config": {}}, "beta_regularizer": null, "gamma_regularizer": null, "beta_constraint": null, "gamma_constraint": null}, "inbound_nodes": [[["conv3d_5", 0, 0, {}]]]}, {"name": "activation_4", "class_name": "Activation", "config": {"name": "activation_4", "trainable": true, "activation": "selu"}, "inbound_nodes": [[["batch_normalization_5", 0, 0, {}]]]}, {"name": "conv3d_7", "class_name": "Conv3D", "config": {"name": "conv3d_7", "trainable": true, "filters": 36, "kernel_size": [1, 1, 1], "strides": [1, 1, 1], "padding": "valid", "data_format": "channels_last", "dilation_rate": [1, 1, 1], "activation": "linear", "use_bias": true, "kernel_initializer": {"class_name": "VarianceScaling", "config": {"scale": 1.0, "mode": "fan_avg", "distribution": "uniform", "seed": null}}, "bias_initializer": {"class_name": "Zeros", "config": {}}, "kernel_regularizer": null, "bias_regularizer": null, "activity_regularizer": null, "kernel_constraint": null, "bias_constraint": null}, "inbound_nodes": [[["activation_2", 0, 0, {}]]]}, {"name": "conv3d_6", "class_name": "Conv3D", "config": {"name": "conv3d_6", "trainable": true, "filters": 36, "kernel_size": [1, 1, 1], "strides": [1, 1, 1], "padding": "valid", "data_format": "channels_last", "dilation_rate": [1, 1, 1], "activation": "linear", "use_bias": true, "kernel_initializer": {"class_name": "VarianceScaling", "config": {"scale": 1.0, "mode": "fan_avg", "distribution": "uniform", "seed": null}}, "bias_initializer": {"class_name": "Zeros", "config": {}}, "kernel_regularizer": null, "bias_regularizer": null, "activity_regularizer": null, "kernel_constraint": null, "bias_constraint": null}, "inbound_nodes": [[["activation_4", 0, 0, {}]]]}, {"name": "batch_normalization_7", "class_name": "BatchNormalization", "config": {"name": "batch_normalization_7", "trainable": true, "axis": -1, "momentum": 0.99, "epsilon": 0.001, "center": true, "scale": true, "beta_initializer": {"class_name": "Zeros", "config": {}}, "gamma_initializer": {"class_name": "Ones", "config": {}}, "moving_mean_initializer": {"class_name": "Zeros", "config": {}}, "moving_variance_initializer": {"class_name": "Ones", "config": {}}, "beta_regularizer": null, "gamma_regularizer": null, "beta_constraint": null, "gamma_constraint": null}, "inbound_nodes": [[["conv3d_7", 0, 0, {}]]]}, {"name": "batch_normalization_6", "class_name": "BatchNormalization", "config": {"name": "batch_normalization_6", "trainable": true, "axis": -1, "momentum": 0.99, "epsilon": 0.001, "center": true, "scale": true, "beta_initializer": {"class_name": "Zeros", "config": {}}, "gamma_initializer": {"class_name": "Ones", "config": {}}, "moving_mean_initializer": {"class_name": "Zeros", "config": {}}, "moving_variance_initializer": {"class_name": "Ones", "config": {}}, "beta_regularizer": null, "gamma_regularizer": null, "beta_constraint": null, "gamma_constraint": null}, "inbound_nodes": [[["conv3d_6", 0, 0, {}]]]}, {"name": "activation_5", "class_name": "Activation", "config": {"name": "activation_5", "trainable": true, "activation": "selu"}, "inbound_nodes": [[["add_5", 1, 0, {}]]]}, {"name": "conv3d_8", "class_name": "Conv3D", "config": {"name": "conv3d_8", "trainable": true, "filters": 9, "kernel_size": [1, 1, 1], "strides": [1, 1, 1], "padding": "valid", "data_format": "channels_last", "dilation_rate": [1, 1, 1], "activation": "linear", "use_bias": true, "kernel_initializer": {"class_name": "VarianceScaling", "config": {"scale": 1.0, "mode": "fan_avg", "distribution": "uniform", "seed": null}}, "bias_initializer": {"class_name": "Zeros", "config": {}}, "kernel_regularizer": null, "bias_regularizer": null, "activity_regularizer": null, "kernel_constraint": null, "bias_constraint": null}, "inbound_nodes": [[["activation_5", 0, 0, {}]]]}, {"name": "batch_normalization_8", "class_name": "BatchNormalization", "config": {"name": "batch_normalization_8", "trainable": true, "axis": -1, "momentum": 0.99, "epsilon": 0.001, "center": true, "scale": true, "beta_initializer": {"class_name": "Zeros", "config": {}}, "gamma_initializer": {"class_name": "Ones", "config": {}}, "moving_mean_initializer": {"class_name": "Zeros", "config": {}}, "moving_variance_initializer": {"class_name": "Ones", "config": {}}, "beta_regularizer": null, "gamma_regularizer": null, "beta_constraint": null, "gamma_constraint": null}, "inbound_nodes": [[["conv3d_8", 0, 0, {}]]]}, {"name": "activation_6", "class_name": "Activation", "config": {"name": "activation_6", "trainable": true, "activation": "selu"}, "inbound_nodes": [[["batch_normalization_8", 0, 0, {}]]]}, {"name": "conv3d_9", "class_name": "Conv3D", "config": {"name": "conv3d_9", "trainable": true, "filters": 9, "kernel_size": [3, 3, 3], "strides": [1, 1, 1], "padding": "same", "data_format": "channels_last", "dilation_rate": [1, 1, 1], "activation": "linear", "use_bias": true, "kernel_initializer": {"class_name": "VarianceScaling", "config": {"scale": 1.0, "mode": "fan_avg", "distribution": "uniform", "seed": null}}, "bias_initializer": {"class_name": "Zeros", "config": {}}, "kernel_regularizer": null, "bias_regularizer": null, "activity_regularizer": null, "kernel_constraint": null, "bias_constraint": null}, "inbound_nodes": [[["activation_6", 0, 0, {}]]]}, {"name": "batch_normalization_9", "class_name": "BatchNormalization", "config": {"name": "batch_normalization_9", "trainable": true, "axis": -1, "momentum": 0.99, "epsilon": 0.001, "center": true, "scale": true, "beta_initializer": {"class_name": "Zeros", "config": {}}, "gamma_initializer": {"class_name": "Ones", "config": {}}, "moving_mean_initializer": {"class_name": "Zeros", "config": {}}, "moving_variance_initializer": {"class_name": "Ones", "config": {}}, "beta_regularizer": null, "gamma_regularizer": null, "beta_constraint": null, "gamma_constraint": null}, "inbound_nodes": [[["conv3d_9", 0, 0, {}]]]}, {"name": "activation_7", "class_name": "Activation", "config": {"name": "activation_7", "trainable": true, "activation": "selu"}, "inbound_nodes": [[["batch_normalization_9", 0, 0, {}]]]}, {"name": "conv3d_11", "class_name": "Conv3D", "config": {"name": "conv3d_11", "trainable": true, "filters": 36, "kernel_size": [1, 1, 1], "strides": [1, 1, 1], "padding": "valid", "data_format": "channels_last", "dilation_rate": [1, 1, 1], "activation": "linear", "use_bias": true, "kernel_initializer": {"class_name": "VarianceScaling", "config": {"scale": 1.0, "mode": "fan_avg", "distribution": "uniform", "seed": null}}, "bias_initializer": {"class_name": "Zeros", "config": {}}, "kernel_regularizer": null, "bias_regularizer": null, "activity_regularizer": null, "kernel_constraint": null, "bias_constraint": null}, "inbound_nodes": [[["activation_5", 0, 0, {}]]]}, {"name": "conv3d_10", "class_name": "Conv3D", "config": {"name": "conv3d_10", "trainable": true, "filters": 36, "kernel_size": [1, 1, 1], "strides": [1, 1, 1], "padding": "valid", "data_format": "channels_last", "dilation_rate": [1, 1, 1], "activation": "linear", "use_bias": true, "kernel_initializer": {"class_name": "VarianceScaling", "config": {"scale": 1.0, "mode": "fan_avg", "distribution": "uniform", "seed": null}}, "bias_initializer": {"class_name": "Zeros", "config": {}}, "kernel_regularizer": null, "bias_regularizer": null, "activity_regularizer": null, "kernel_constraint": null, "bias_constraint": null}, "inbound_nodes": [[["activation_7", 0, 0, {}]]]}, {"name": "batch_normalization_11", "class_name": "BatchNormalization", "config": {"name": "batch_normalization_11", "trainable": true, "axis": -1, "momentum": 0.99, "epsilon": 0.001, "center": true, "scale": true, "beta_initializer": {"class_name": "Zeros", "config": {}}, "gamma_initializer": {"class_name": "Ones", "config": {}}, "moving_mean_initializer": {"class_name": "Zeros", "config": {}}, "moving_variance_initializer": {"class_name": "Ones", "config": {}}, "beta_regularizer": null, "gamma_regularizer": null, "beta_constraint": null, "gamma_constraint": null}, "inbound_nodes": [[["conv3d_11", 0, 0, {}]]]}, {"name": "batch_normalization_10", "class_name": "BatchNormalization", "config": {"name": "batch_normalization_10", "trainable": true, "axis": -1, "momentum": 0.99, "epsilon": 0.001, "center": true, "scale": true, "beta_initializer": {"class_name": "Zeros", "config": {}}, "gamma_initializer": {"class_name": "Ones", "config": {}}, "moving_mean_initializer": {"class_name": "Zeros", "config": {}}, "moving_variance_initializer": {"class_name": "Ones", "config": {}}, "beta_regularizer": null, "gamma_regularizer": null, "beta_constraint": null, "gamma_constraint": null}, "inbound_nodes": [[["conv3d_10", 0, 0, {}]]]}, {"name": "activation_8", "class_name": "Activation", "config": {"name": "activation_8", "trainable": true, "activation": "selu"}, "inbound_nodes": [[["add_5", 2, 0, {}]]]}, {"name": "max_pooling3d_1", "class_name": "MaxPooling3D", "config": {"name": "max_pooling3d_1", "trainable": true, "pool_size": [2, 2, 2], "padding": "valid", "strides": [2, 2, 2], "data_format": "channels_last"}, "inbound_nodes": [[["activation_8", 0, 0, {}]]]}, {"name": "conv3d_12", "class_name": "Conv3D", "config": {"name": "conv3d_12", "trainable": true, "filters": 18, "kernel_size": [1, 1, 1], "strides": [1, 1, 1], "padding": "valid", "data_format": "channels_last", "dilation_rate": [1, 1, 1], "activation": "linear", "use_bias": true, "kernel_initializer": {"class_name": "VarianceScaling", "config": {"scale": 1.0, "mode": "fan_avg", "distribution": "uniform", "seed": null}}, "bias_initializer": {"class_name": "Zeros", "config": {}}, "kernel_regularizer": null, "bias_regularizer": null, "activity_regularizer": null, "kernel_constraint": null, "bias_constraint": null}, "inbound_nodes": [[["max_pooling3d_1", 0, 0, {}]]]}, {"name": "batch_normalization_12", "class_name": "BatchNormalization", "config": {"name": "batch_normalization_12", "trainable": true, "axis": -1, "momentum": 0.99, "epsilon": 0.001, "center": true, "scale": true, "beta_initializer": {"class_name": "Zeros", "config": {}}, "gamma_initializer": {"class_name": "Ones", "config": {}}, "moving_mean_initializer": {"class_name": "Zeros", "config": {}}, "moving_variance_initializer": {"class_name": "Ones", "config": {}}, "beta_regularizer": null, "gamma_regularizer": null, "beta_constraint": null, "gamma_constraint": null}, "inbound_nodes": [[["conv3d_12", 0, 0, {}]]]}, {"name": "activation_9", "class_name": "Activation", "config": {"name": "activation_9", "trainable": true, "activation": "selu"}, "inbound_nodes": [[["batch_normalization_12", 0, 0, {}]]]}, {"name": "conv3d_13", "class_name": "Conv3D", "config": {"name": "conv3d_13", "trainable": true, "filters": 18, "kernel_size": [3, 3, 3], "strides": [1, 1, 1], "padding": "same", "data_format": "channels_last", "dilation_rate": [1, 1, 1], "activation": "linear", "use_bias": true, "kernel_initializer": {"class_name": "VarianceScaling", "config": {"scale": 1.0, "mode": "fan_avg", "distribution": "uniform", "seed": null}}, "bias_initializer": {"class_name": "Zeros", "config": {}}, "kernel_regularizer": null, "bias_regularizer": null, "activity_regularizer": null, "kernel_constraint": null, "bias_constraint": null}, "inbound_nodes": [[["activation_9", 0, 0, {}]]]}, {"name": "batch_normalization_13", "class_name": "BatchNormalization", "config": {"name": "batch_normalization_13", "trainable": true, "axis": -1, "momentum": 0.99, "epsilon": 0.001, "center": true, "scale": true, "beta_initializer": {"class_name": "Zeros", "config": {}}, "gamma_initializer": {"class_name": "Ones", "config": {}}, "moving_mean_initializer": {"class_name": "Zeros", "config": {}}, "moving_variance_initializer": {"class_name": "Ones", "config": {}}, "beta_regularizer": null, "gamma_regularizer": null, "beta_constraint": null, "gamma_constraint": null}, "inbound_nodes": [[["conv3d_13", 0, 0, {}]]]}, {"name": "activation_10", "class_name": "Activation", "config": {"name": "activation_10", "trainable": true, "activation": "selu"}, "inbound_nodes": [[["batch_normalization_13", 0, 0, {}]]]}, {"name": "conv3d_15", "class_name": "Conv3D", "config": {"name": "conv3d_15", "trainable": true, "filters": 72, "kernel_size": [1, 1, 1], "strides": [1, 1, 1], "padding": "valid", "data_format": "channels_last", "dilation_rate": [1, 1, 1], "activation": "linear", "use_bias": true, "kernel_initializer": {"class_name": "VarianceScaling", "config": {"scale": 1.0, "mode": "fan_avg", "distribution": "uniform", "seed": null}}, "bias_initializer": {"class_name": "Zeros", "config": {}}, "kernel_regularizer": null, "bias_regularizer": null, "activity_regularizer": null, "kernel_constraint": null, "bias_constraint": null}, "inbound_nodes": [[["max_pooling3d_1", 0, 0, {}]]]}, {"name": "conv3d_14", "class_name": "Conv3D", "config": {"name": "conv3d_14", "trainable": true, "filters": 72, "kernel_size": [1, 1, 1], "strides": [1, 1, 1], "padding": "valid", "data_format": "channels_last", "dilation_rate": [1, 1, 1], "activation": "linear", "use_bias": true, "kernel_initializer": {"class_name": "VarianceScaling", "config": {"scale": 1.0, "mode": "fan_avg", "distribution": "uniform", "seed": null}}, "bias_initializer": {"class_name": "Zeros", "config": {}}, "kernel_regularizer": null, "bias_regularizer": null, "activity_regularizer": null, "kernel_constraint": null, "bias_constraint": null}, "inbound_nodes": [[["activation_10", 0, 0, {}]]]}, {"name": "batch_normalization_15", "class_name": "BatchNormalization", "config": {"name": "batch_normalization_15", "trainable": true, "axis": -1, "momentum": 0.99, "epsilon": 0.001, "center": true, "scale": true, "beta_initializer": {"class_name": "Zeros", "config": {}}, "gamma_initializer": {"class_name": "Ones", "config": {}}, "moving_mean_initializer": {"class_name": "Zeros", "config": {}}, "moving_variance_initializer": {"class_name": "Ones", "config": {}}, "beta_regularizer": null, "gamma_regularizer": null, "beta_constraint": null, "gamma_constraint": null}, "inbound_nodes": [[["conv3d_15", 0, 0, {}]]]}, {"name": "batch_normalization_14", "class_name": "BatchNormalization", "config": {"name": "batch_normalization_14", "trainable": true, "axis": -1, "momentum": 0.99, "epsilon": 0.001, "center": true, "scale": true, "beta_initializer": {"class_name": "Zeros", "config": {}}, "gamma_initializer": {"class_name": "Ones", "config": {}}, "moving_mean_initializer": {"class_name": "Zeros", "config": {}}, "moving_variance_initializer": {"class_name": "Ones", "config": {}}, "beta_regularizer": null, "gamma_regularizer": null, "beta_constraint": null, "gamma_constraint": null}, "inbound_nodes": [[["conv3d_14", 0, 0, {}]]]}, {"name": "activation_11", "class_name": "Activation", "config": {"name": "activation_11", "trainable": true, "activation": "selu"}, "inbound_nodes": [[["add_5", 3, 0, {}]]]}, {"name": "conv3d_16", "class_name": "Conv3D", "config": {"name": "conv3d_16", "trainable": true, "filters": 18, "kernel_size": [1, 1, 1], "strides": [1, 1, 1], "padding": "valid", "data_format": "channels_last", "dilation_rate": [1, 1, 1], "activation": "linear", "use_bias": true, "kernel_initializer": {"class_name": "VarianceScaling", "config": {"scale": 1.0, "mode": "fan_avg", "distribution": "uniform", "seed": null}}, "bias_initializer": {"class_name": "Zeros", "config": {}}, "kernel_regularizer": null, "bias_regularizer": null, "activity_regularizer": null, "kernel_constraint": null, "bias_constraint": null}, "inbound_nodes": [[["activation_11", 0, 0, {}]]]}, {"name": "batch_normalization_16", "class_name": "BatchNormalization", "config": {"name": "batch_normalization_16", "trainable": true, "axis": -1, "momentum": 0.99, "epsilon": 0.001, "center": true, "scale": true, "beta_initializer": {"class_name": "Zeros", "config": {}}, "gamma_initializer": {"class_name": "Ones", "config": {}}, "moving_mean_initializer": {"class_name": "Zeros", "config": {}}, "moving_variance_initializer": {"class_name": "Ones", "config": {}}, "beta_regularizer": null, "gamma_regularizer": null, "beta_constraint": null, "gamma_constraint": null}, "inbound_nodes": [[["conv3d_16", 0, 0, {}]]]}, {"name": "activation_12", "class_name": "Activation", "config": {"name": "activation_12", "trainable": true, "activation": "selu"}, "inbound_nodes": [[["batch_normalization_16", 0, 0, {}]]]}, {"name": "conv3d_17", "class_name": "Conv3D", "config": {"name": "conv3d_17", "trainable": true, "filters": 18, "kernel_size": [3, 3, 3], "strides": [1, 1, 1], "padding": "same", "data_format": "channels_last", "dilation_rate": [1, 1, 1], "activation": "linear", "use_bias": true, "kernel_initializer": {"class_name": "VarianceScaling", "config": {"scale": 1.0, "mode": "fan_avg", "distribution": "uniform", "seed": null}}, "bias_initializer": {"class_name": "Zeros", "config": {}}, "kernel_regularizer": null, "bias_regularizer": null, "activity_regularizer": null, "kernel_constraint": null, "bias_constraint": null}, "inbound_nodes": [[["activation_12", 0, 0, {}]]]}, {"name": "batch_normalization_17", "class_name": "BatchNormalization", "config": {"name": "batch_normalization_17", "trainable": true, "axis": -1, "momentum": 0.99, "epsilon": 0.001, "center": true, "scale": true, "beta_initializer": {"class_name": "Zeros", "config": {}}, "gamma_initializer": {"class_name": "Ones", "config": {}}, "moving_mean_initializer": {"class_name": "Zeros", "config": {}}, "moving_variance_initializer": {"class_name": "Ones", "config": {}}, "beta_regularizer": null, "gamma_regularizer": null, "beta_constraint": null, "gamma_constraint": null}, "inbound_nodes": [[["conv3d_17", 0, 0, {}]]]}, {"name": "activation_13", "class_name": "Activation", "config": {"name": "activation_13", "trainable": true, "activation": "selu"}, "inbound_nodes": [[["batch_normalization_17", 0, 0, {}]]]}, {"name": "conv3d_19", "class_name": "Conv3D", "config": {"name": "conv3d_19", "trainable": true, "filters": 72, "kernel_size": [1, 1, 1], "strides": [1, 1, 1], "padding": "valid", "data_format": "channels_last", "dilation_rate": [1, 1, 1], "activation": "linear", "use_bias": true, "kernel_initializer": {"class_name": "VarianceScaling", "config": {"scale": 1.0, "mode": "fan_avg", "distribution": "uniform", "seed": null}}, "bias_initializer": {"class_name": "Zeros", "config": {}}, "kernel_regularizer": null, "bias_regularizer": null, "activity_regularizer": null, "kernel_constraint": null, "bias_constraint": null}, "inbound_nodes": [[["activation_11", 0, 0, {}]]]}, {"name": "conv3d_18", "class_name": "Conv3D", "config": {"name": "conv3d_18", "trainable": true, "filters": 72, "kernel_size": [1, 1, 1], "strides": [1, 1, 1], "padding": "valid", "data_format": "channels_last", "dilation_rate": [1, 1, 1], "activation": "linear", "use_bias": true, "kernel_initializer": {"class_name": "VarianceScaling", "config": {"scale": 1.0, "mode": "fan_avg", "distribution": "uniform", "seed": null}}, "bias_initializer": {"class_name": "Zeros", "config": {}}, "kernel_regularizer": null, "bias_regularizer": null, "activity_regularizer": null, "kernel_constraint": null, "bias_constraint": null}, "inbound_nodes": [[["activation_13", 0, 0, {}]]]}, {"name": "batch_normalization_19", "class_name": "BatchNormalization", "config": {"name": "batch_normalization_19", "trainable": true, "axis": -1, "momentum": 0.99, "epsilon": 0.001, "center": true, "scale": true, "beta_initializer": {"class_name": "Zeros", "config": {}}, "gamma_initializer": {"class_name": "Ones", "config": {}}, "moving_mean_initializer": {"class_name": "Zeros", "config": {}}, "moving_variance_initializer": {"class_name": "Ones", "config": {}}, "beta_regularizer": null, "gamma_regularizer": null, "beta_constraint": null, "gamma_constraint": null}, "inbound_nodes": [[["conv3d_19", 0, 0, {}]]]}, {"name": "batch_normalization_18", "class_name": "BatchNormalization", "config": {"name": "batch_normalization_18", "trainable": true, "axis": -1, "momentum": 0.99, "epsilon": 0.001, "center": true, "scale": true, "beta_initializer": {"class_name": "Zeros", "config": {}}, "gamma_initializer": {"class_name": "Ones", "config": {}}, "moving_mean_initializer": {"class_name": "Zeros", "config": {}}, "moving_variance_initializer": {"class_name": "Ones", "config": {}}, "beta_regularizer": null, "gamma_regularizer": null, "beta_constraint": null, "gamma_constraint": null}, "inbound_nodes": [[["conv3d_18", 0, 0, {}]]]}, {"name": "activation_14", "class_name": "Activation", "config": {"name": "activation_14", "trainable": true, "activation": "selu"}, "inbound_nodes": [[["add_5", 4, 0, {}]]]}, {"name": "max_pooling3d_2", "class_name": "MaxPooling3D", "config": {"name": "max_pooling3d_2", "trainable": true, "pool_size": [2, 2, 2], "padding": "valid", "strides": [2, 2, 2], "data_format": "channels_last"}, "inbound_nodes": [[["activation_14", 0, 0, {}]]]}, {"name": "conv3d_20", "class_name": "Conv3D", "config": {"name": "conv3d_20", "trainable": true, "filters": 36, "kernel_size": [1, 1, 1], "strides": [1, 1, 1], "padding": "valid", "data_format": "channels_last", "dilation_rate": [1, 1, 1], "activation": "linear", "use_bias": true, "kernel_initializer": {"class_name": "VarianceScaling", "config": {"scale": 1.0, "mode": "fan_avg", "distribution": "uniform", "seed": null}}, "bias_initializer": {"class_name": "Zeros", "config": {}}, "kernel_regularizer": null, "bias_regularizer": null, "activity_regularizer": null, "kernel_constraint": null, "bias_constraint": null}, "inbound_nodes": [[["max_pooling3d_2", 0, 0, {}]]]}, {"name": "batch_normalization_20", "class_name": "BatchNormalization", "config": {"name": "batch_normalization_20", "trainable": true, "axis": -1, "momentum": 0.99, "epsilon": 0.001, "center": true, "scale": true, "beta_initializer": {"class_name": "Zeros", "config": {}}, "gamma_initializer": {"class_name": "Ones", "config": {}}, "moving_mean_initializer": {"class_name": "Zeros", "config": {}}, "moving_variance_initializer": {"class_name": "Ones", "config": {}}, "beta_regularizer": null, "gamma_regularizer": null, "beta_constraint": null, "gamma_constraint": null}, "inbound_nodes": [[["conv3d_20", 0, 0, {}]]]}, {"name": "activation_15", "class_name": "Activation", "config": {"name": "activation_15", "trainable": true, "activation": "selu"}, "inbound_nodes": [[["batch_normalization_20", 0, 0, {}]]]}, {"name": "conv3d_21", "class_name": "Conv3D", "config": {"name": "conv3d_21", "trainable": true, "filters": 36, "kernel_size": [3, 3, 3], "strides": [1, 1, 1], "padding": "same", "data_format": "channels_last", "dilation_rate": [1, 1, 1], "activation": "linear", "use_bias": true, "kernel_initializer": {"class_name": "VarianceScaling", "config": {"scale": 1.0, "mode": "fan_avg", "distribution": "uniform", "seed": null}}, "bias_initializer": {"class_name": "Zeros", "config": {}}, "kernel_regularizer": null, "bias_regularizer": null, "activity_regularizer": null, "kernel_constraint": null, "bias_constraint": null}, "inbound_nodes": [[["activation_15", 0, 0, {}]]]}, {"name": "batch_normalization_21", "class_name": "BatchNormalization", "config": {"name": "batch_normalization_21", "trainable": true, "axis": -1, "momentum": 0.99, "epsilon": 0.001, "center": true, "scale": true, "beta_initializer": {"class_name": "Zeros", "config": {}}, "gamma_initializer": {"class_name": "Ones", "config": {}}, "moving_mean_initializer": {"class_name": "Zeros", "config": {}}, "moving_variance_initializer": {"class_name": "Ones", "config": {}}, "beta_regularizer": null, "gamma_regularizer": null, "beta_constraint": null, "gamma_constraint": null}, "inbound_nodes": [[["conv3d_21", 0, 0, {}]]]}, {"name": "activation_16", "class_name": "Activation", "config": {"name": "activation_16", "trainable": true, "activation": "selu"}, "inbound_nodes": [[["batch_normalization_21", 0, 0, {}]]]}, {"name": "conv3d_23", "class_name": "Conv3D", "config": {"name": "conv3d_23", "trainable": true, "filters": 144, "kernel_size": [1, 1, 1], "strides": [1, 1, 1], "padding": "valid", "data_format": "channels_last", "dilation_rate": [1, 1, 1], "activation": "linear", "use_bias": true, "kernel_initializer": {"class_name": "VarianceScaling", "config": {"scale": 1.0, "mode": "fan_avg", "distribution": "uniform", "seed": null}}, "bias_initializer": {"class_name": "Zeros", "config": {}}, "kernel_regularizer": null, "bias_regularizer": null, "activity_regularizer": null, "kernel_constraint": null, "bias_constraint": null}, "inbound_nodes": [[["max_pooling3d_2", 0, 0, {}]]]}, {"name": "conv3d_22", "class_name": "Conv3D", "config": {"name": "conv3d_22", "trainable": true, "filters": 144, "kernel_size": [1, 1, 1], "strides": [1, 1, 1], "padding": "valid", "data_format": "channels_last", "dilation_rate": [1, 1, 1], "activation": "linear", "use_bias": true, "kernel_initializer": {"class_name": "VarianceScaling", "config": {"scale": 1.0, "mode": "fan_avg", "distribution": "uniform", "seed": null}}, "bias_initializer": {"class_name": "Zeros", "config": {}}, "kernel_regularizer": null, "bias_regularizer": null, "activity_regularizer": null, "kernel_constraint": null, "bias_constraint": null}, "inbound_nodes": [[["activation_16", 0, 0, {}]]]}, {"name": "batch_normalization_23", "class_name": "BatchNormalization", "config": {"name": "batch_normalization_23", "trainable": true, "axis": -1, "momentum": 0.99, "epsilon": 0.001, "center": true, "scale": true, "beta_initializer": {"class_name": "Zeros", "config": {}}, "gamma_initializer": {"class_name": "Ones", "config": {}}, "moving_mean_initializer": {"class_name": "Zeros", "config": {}}, "moving_variance_initializer": {"class_name": "Ones", "config": {}}, "beta_regularizer": null, "gamma_regularizer": null, "beta_constraint": null, "gamma_constraint": null}, "inbound_nodes": [[["conv3d_23", 0, 0, {}]]]}, {"name": "batch_normalization_22", "class_name": "BatchNormalization", "config": {"name": "batch_normalization_22", "trainable": true, "axis": -1, "momentum": 0.99, "epsilon": 0.001, "center": true, "scale": true, "beta_initializer": {"class_name": "Zeros", "config": {}}, "gamma_initializer": {"class_name": "Ones", "config": {}}, "moving_mean_initializer": {"class_name": "Zeros", "config": {}}, "moving_variance_initializer": {"class_name": "Ones", "config": {}}, "beta_regularizer": null, "gamma_regularizer": null, "beta_constraint": null, "gamma_constraint": null}, "inbound_nodes": [[["conv3d_22", 0, 0, {}]]]}, {"name": "activation_17", "class_name": "Activation", "config": {"name": "activation_17", "trainable": true, "activation": "selu"}, "inbound_nodes": [[["add_5", 5, 0, {}]]]}, {"name": "conv3d_24", "class_name": "Conv3D", "config": {"name": "conv3d_24", "trainable": true, "filters": 36, "kernel_size": [1, 1, 1], "strides": [1, 1, 1], "padding": "valid", "data_format": "channels_last", "dilation_rate": [1, 1, 1], "activation": "linear", "use_bias": true, "kernel_initializer": {"class_name": "VarianceScaling", "config": {"scale": 1.0, "mode": "fan_avg", "distribution": "uniform", "seed": null}}, "bias_initializer": {"class_name": "Zeros", "config": {}}, "kernel_regularizer": null, "bias_regularizer": null, "activity_regularizer": null, "kernel_constraint": null, "bias_constraint": null}, "inbound_nodes": [[["activation_17", 0, 0, {}]]]}, {"name": "batch_normalization_24", "class_name": "BatchNormalization", "config": {"name": "batch_normalization_24", "trainable": true, "axis": -1, "momentum": 0.99, "epsilon": 0.001, "center": true, "scale": true, "beta_initializer": {"class_name": "Zeros", "config": {}}, "gamma_initializer": {"class_name": "Ones", "config": {}}, "moving_mean_initializer": {"class_name": "Zeros", "config": {}}, "moving_variance_initializer": {"class_name": "Ones", "config": {}}, "beta_regularizer": null, "gamma_regularizer": null, "beta_constraint": null, "gamma_constraint": null}, "inbound_nodes": [[["conv3d_24", 0, 0, {}]]]}, {"name": "activation_18", "class_name": "Activation", "config": {"name": "activation_18", "trainable": true, "activation": "selu"}, "inbound_nodes": [[["batch_normalization_24", 0, 0, {}]]]}, {"name": "conv3d_25", "class_name": "Conv3D", "config": {"name": "conv3d_25", "trainable": true, "filters": 36, "kernel_size": [3, 3, 3], "strides": [1, 1, 1], "padding": "same", "data_format": "channels_last", "dilation_rate": [1, 1, 1], "activation": "linear", "use_bias": true, "kernel_initializer": {"class_name": "VarianceScaling", "config": {"scale": 1.0, "mode": "fan_avg", "distribution": "uniform", "seed": null}}, "bias_initializer": {"class_name": "Zeros", "config": {}}, "kernel_regularizer": null, "bias_regularizer": null, "activity_regularizer": null, "kernel_constraint": null, "bias_constraint": null}, "inbound_nodes": [[["activation_18", 0, 0, {}]]]}, {"name": "batch_normalization_25", "class_name": "BatchNormalization", "config": {"name": "batch_normalization_25", "trainable": true, "axis": -1, "momentum": 0.99, "epsilon": 0.001, "center": true, "scale": true, "beta_initializer": {"class_name": "Zeros", "config": {}}, "gamma_initializer": {"class_name": "Ones", "config": {}}, "moving_mean_initializer": {"class_name": "Zeros", "config": {}}, "moving_variance_initializer": {"class_name": "Ones", "config": {}}, "beta_regularizer": null, "gamma_regularizer": null, "beta_constraint": null, "gamma_constraint": null}, "inbound_nodes": [[["conv3d_25", 0, 0, {}]]]}, {"name": "activation_19", "class_name": "Activation", "config": {"name": "activation_19", "trainable": true, "activation": "selu"}, "inbound_nodes": [[["batch_normalization_25", 0, 0, {}]]]}, {"name": "conv3d_27", "class_name": "Conv3D", "config": {"name": "conv3d_27", "trainable": true, "filters": 144, "kernel_size": [1, 1, 1], "strides": [1, 1, 1], "padding": "valid", "data_format": "channels_last", "dilation_rate": [1, 1, 1], "activation": "linear", "use_bias": true, "kernel_initializer": {"class_name": "VarianceScaling", "config": {"scale": 1.0, "mode": "fan_avg", "distribution": "uniform", "seed": null}}, "bias_initializer": {"class_name": "Zeros", "config": {}}, "kernel_regularizer": null, "bias_regularizer": null, "activity_regularizer": null, "kernel_constraint": null, "bias_constraint": null}, "inbound_nodes": [[["activation_17", 0, 0, {}]]]}, {"name": "conv3d_26", "class_name": "Conv3D", "config": {"name": "conv3d_26", "trainable": true, "filters": 144, "kernel_size": [1, 1, 1], "strides": [1, 1, 1], "padding": "valid", "data_format": "channels_last", "dilation_rate": [1, 1, 1], "activation": "linear", "use_bias": true, "kernel_initializer": {"class_name": "VarianceScaling", "config": {"scale": 1.0, "mode": "fan_avg", "distribution": "uniform", "seed": null}}, "bias_initializer": {"class_name": "Zeros", "config": {}}, "kernel_regularizer": null, "bias_regularizer": null, "activity_regularizer": null, "kernel_constraint": null, "bias_constraint": null}, "inbound_nodes": [[["activation_19", 0, 0, {}]]]}, {"name": "batch_normalization_27", "class_name": "BatchNormalization", "config": {"name": "batch_normalization_27", "trainable": true, "axis": -1, "momentum": 0.99, "epsilon": 0.001, "center": true, "scale": true, "beta_initializer": {"class_name": "Zeros", "config": {}}, "gamma_initializer": {"class_name": "Ones", "config": {}}, "moving_mean_initializer": {"class_name": "Zeros", "config": {}}, "moving_variance_initializer": {"class_name": "Ones", "config": {}}, "beta_regularizer": null, "gamma_regularizer": null, "beta_constraint": null, "gamma_constraint": null}, "inbound_nodes": [[["conv3d_27", 0, 0, {}]]]}, {"name": "batch_normalization_26", "class_name": "BatchNormalization", "config": {"name": "batch_normalization_26", "trainable": true, "axis": -1, "momentum": 0.99, "epsilon": 0.001, "center": true, "scale": true, "beta_initializer": {"class_name": "Zeros", "config": {}}, "gamma_initializer": {"class_name": "Ones", "config": {}}, "moving_mean_initializer": {"class_name": "Zeros", "config": {}}, "moving_variance_initializer": {"class_name": "Ones", "config": {}}, "beta_regularizer": null, "gamma_regularizer": null, "beta_constraint": null, "gamma_constraint": null}, "inbound_nodes": [[["conv3d_26", 0, 0, {}]]]}, {"name": "activation_20", "class_name": "Activation", "config": {"name": "activation_20", "trainable": true, "activation": "selu"}, "inbound_nodes": [[["add_5", 6, 0, {}]]]}, {"name": "max_pooling3d_3", "class_name": "MaxPooling3D", "config": {"name": "max_pooling3d_3", "trainable": true, "pool_size": [2, 2, 2], "padding": "valid", "strides": [2, 2, 2], "data_format": "channels_last"}, "inbound_nodes": [[["activation_20", 0, 0, {}]]]}, {"name": "conv3d_28", "class_name": "Conv3D", "config": {"name": "conv3d_28", "trainable": true, "filters": 72, "kernel_size": [1, 1, 1], "strides": [1, 1, 1], "padding": "valid", "data_format": "channels_last", "dilation_rate": [1, 1, 1], "activation": "linear", "use_bias": true, "kernel_initializer": {"class_name": "VarianceScaling", "config": {"scale": 1.0, "mode": "fan_avg", "distribution": "uniform", "seed": null}}, "bias_initializer": {"class_name": "Zeros", "config": {}}, "kernel_regularizer": null, "bias_regularizer": null, "activity_regularizer": null, "kernel_constraint": null, "bias_constraint": null}, "inbound_nodes": [[["max_pooling3d_3", 0, 0, {}]]]}, {"name": "batch_normalization_28", "class_name": "BatchNormalization", "config": {"name": "batch_normalization_28", "trainable": true, "axis": -1, "momentum": 0.99, "epsilon": 0.001, "center": true, "scale": true, "beta_initializer": {"class_name": "Zeros", "config": {}}, "gamma_initializer": {"class_name": "Ones", "config": {}}, "moving_mean_initializer": {"class_name": "Zeros", "config": {}}, "moving_variance_initializer": {"class_name": "Ones", "config": {}}, "beta_regularizer": null, "gamma_regularizer": null, "beta_constraint": null, "gamma_constraint": null}, "inbound_nodes": [[["conv3d_28", 0, 0, {}]]]}, {"name": "activation_21", "class_name": "Activation", "config": {"name": "activation_21", "trainable": true, "activation": "selu"}, "inbound_nodes": [[["batch_normalization_28", 0, 0, {}]]]}, {"name": "conv3d_29", "class_name": "Conv3D", "config": {"name": "conv3d_29", "trainable": true, "filters": 72, "kernel_size": [3, 3, 3], "strides": [1, 1, 1], "padding": "same", "data_format": "channels_last", "dilation_rate": [1, 1, 1], "activation": "linear", "use_bias": true, "kernel_initializer": {"class_name": "VarianceScaling", "config": {"scale": 1.0, "mode": "fan_avg", "distribution": "uniform", "seed": null}}, "bias_initializer": {"class_name": "Zeros", "config": {}}, "kernel_regularizer": null, "bias_regularizer": null, "activity_regularizer": null, "kernel_constraint": null, "bias_constraint": null}, "inbound_nodes": [[["activation_21", 0, 0, {}]]]}, {"name": "batch_normalization_29", "class_name": "BatchNormalization", "config": {"name": "batch_normalization_29", "trainable": true, "axis": -1, "momentum": 0.99, "epsilon": 0.001, "center": true, "scale": true, "beta_initializer": {"class_name": "Zeros", "config": {}}, "gamma_initializer": {"class_name": "Ones", "config": {}}, "moving_mean_initializer": {"class_name": "Zeros", "config": {}}, "moving_variance_initializer": {"class_name": "Ones", "config": {}}, "beta_regularizer": null, "gamma_regularizer": null, "beta_constraint": null, "gamma_constraint": null}, "inbound_nodes": [[["conv3d_29", 0, 0, {}]]]}, {"name": "activation_22", "class_name": "Activation", "config": {"name": "activation_22", "trainable": true, "activation": "selu"}, "inbound_nodes": [[["batch_normalization_29", 0, 0, {}]]]}, {"name": "conv3d_31", "class_name": "Conv3D", "config": {"name": "conv3d_31", "trainable": true, "filters": 288, "kernel_size": [1, 1, 1], "strides": [1, 1, 1], "padding": "valid", "data_format": "channels_last", "dilation_rate": [1, 1, 1], "activation": "linear", "use_bias": true, "kernel_initializer": {"class_name": "VarianceScaling", "config": {"scale": 1.0, "mode": "fan_avg", "distribution": "uniform", "seed": null}}, "bias_initializer": {"class_name": "Zeros", "config": {}}, "kernel_regularizer": null, "bias_regularizer": null, "activity_regularizer": null, "kernel_constraint": null, "bias_constraint": null}, "inbound_nodes": [[["max_pooling3d_3", 0, 0, {}]]]}, {"name": "conv3d_30", "class_name": "Conv3D", "config": {"name": "conv3d_30", "trainable": true, "filters": 288, "kernel_size": [1, 1, 1], "strides": [1, 1, 1], "padding": "valid", "data_format": "channels_last", "dilation_rate": [1, 1, 1], "activation": "linear", "use_bias": true, "kernel_initializer": {"class_name": "VarianceScaling", "config": {"scale": 1.0, "mode": "fan_avg", "distribution": "uniform", "seed": null}}, "bias_initializer": {"class_name": "Zeros", "config": {}}, "kernel_regularizer": null, "bias_regularizer": null, "activity_regularizer": null, "kernel_constraint": null, "bias_constraint": null}, "inbound_nodes": [[["activation_22", 0, 0, {}]]]}, {"name": "batch_normalization_31", "class_name": "BatchNormalization", "config": {"name": "batch_normalization_31", "trainable": true, "axis": -1, "momentum": 0.99, "epsilon": 0.001, "center": true, "scale": true, "beta_initializer": {"class_name": "Zeros", "config": {}}, "gamma_initializer": {"class_name": "Ones", "config": {}}, "moving_mean_initializer": {"class_name": "Zeros", "config": {}}, "moving_variance_initializer": {"class_name": "Ones", "config": {}}, "beta_regularizer": null, "gamma_regularizer": null, "beta_constraint": null, "gamma_constraint": null}, "inbound_nodes": [[["conv3d_31", 0, 0, {}]]]}, {"name": "batch_normalization_30", "class_name": "BatchNormalization", "config": {"name": "batch_normalization_30", "trainable": true, "axis": -1, "momentum": 0.99, "epsilon": 0.001, "center": true, "scale": true, "beta_initializer": {"class_name": "Zeros", "config": {}}, "gamma_initializer": {"class_name": "Ones", "config": {}}, "moving_mean_initializer": {"class_name": "Zeros", "config": {}}, "moving_variance_initializer": {"class_name": "Ones", "config": {}}, "beta_regularizer": null, "gamma_regularizer": null, "beta_constraint": null, "gamma_constraint": null}, "inbound_nodes": [[["conv3d_30", 0, 0, {}]]]}, {"name": "activation_23", "class_name": "Activation", "config": {"name": "activation_23", "trainable": true, "activation": "selu"}, "inbound_nodes": [[["add_5", 7, 0, {}]]]}, {"name": "up_sampling3d_1", "class_name": "UpSampling3D", "config": {"name": "up_sampling3d_1", "trainable": true, "size": [2, 2, 2], "data_format": "channels_last"}, "inbound_nodes": [[["activation_23", 0, 0, {}]]]}, {"name": "conv3d_32", "class_name": "Conv3D", "config": {"name": "conv3d_32", "trainable": true, "filters": 144, "kernel_size": [3, 3, 3], "strides": [1, 1, 1], "padding": "same", "data_format": "channels_last", "dilation_rate": [1, 1, 1], "activation": "linear", "use_bias": true, "kernel_initializer": {"class_name": "VarianceScaling", "config": {"scale": 1.0, "mode": "fan_avg", "distribution": "uniform", "seed": null}}, "bias_initializer": {"class_name": "Zeros", "config": {}}, "kernel_regularizer": null, "bias_regularizer": null, "activity_regularizer": null, "kernel_constraint": null, "bias_constraint": null}, "inbound_nodes": [[["up_sampling3d_1", 0, 0, {}]]]}, {"name": "concatenate_2", "class_name": "Concatenate", "config": {"name": "concatenate_2", "trainable": true, "axis": -1}, "inbound_nodes": [[["conv3d_32", 0, 0, {}], ["activation_20", 0, 0, {}]]]}, {"name": "conv3d_33", "class_name": "Conv3D", "config": {"name": "conv3d_33", "trainable": true, "filters": 36, "kernel_size": [1, 1, 1], "strides": [1, 1, 1], "padding": "valid", "data_format": "channels_last", "dilation_rate": [1, 1, 1], "activation": "linear", "use_bias": true, "kernel_initializer": {"class_name": "VarianceScaling", "config": {"scale": 1.0, "mode": "fan_avg", "distribution": "uniform", "seed": null}}, "bias_initializer": {"class_name": "Zeros", "config": {}}, "kernel_regularizer": null, "bias_regularizer": null, "activity_regularizer": null, "kernel_constraint": null, "bias_constraint": null}, "inbound_nodes": [[["concatenate_2", 0, 0, {}]]]}, {"name": "batch_normalization_32", "class_name": "BatchNormalization", "config": {"name": "batch_normalization_32", "trainable": true, "axis": -1, "momentum": 0.99, "epsilon": 0.001, "center": true, "scale": true, "beta_initializer": {"class_name": "Zeros", "config": {}}, "gamma_initializer": {"class_name": "Ones", "config": {}}, "moving_mean_initializer": {"class_name": "Zeros", "config": {}}, "moving_variance_initializer": {"class_name": "Ones", "config": {}}, "beta_regularizer": null, "gamma_regularizer": null, "beta_constraint": null, "gamma_constraint": null}, "inbound_nodes": [[["conv3d_33", 0, 0, {}]]]}, {"name": "activation_24", "class_name": "Activation", "config": {"name": "activation_24", "trainable": true, "activation": "selu"}, "inbound_nodes": [[["batch_normalization_32", 0, 0, {}]]]}, {"name": "conv3d_34", "class_name": "Conv3D", "config": {"name": "conv3d_34", "trainable": true, "filters": 36, "kernel_size": [3, 3, 3], "strides": [1, 1, 1], "padding": "same", "data_format": "channels_last", "dilation_rate": [1, 1, 1], "activation": "linear", "use_bias": true, "kernel_initializer": {"class_name": "VarianceScaling", "config": {"scale": 1.0, "mode": "fan_avg", "distribution": "uniform", "seed": null}}, "bias_initializer": {"class_name": "Zeros", "config": {}}, "kernel_regularizer": null, "bias_regularizer": null, "activity_regularizer": null, "kernel_constraint": null, "bias_constraint": null}, "inbound_nodes": [[["activation_24", 0, 0, {}]]]}, {"name": "batch_normalization_33", "class_name": "BatchNormalization", "config": {"name": "batch_normalization_33", "trainable": true, "axis": -1, "momentum": 0.99, "epsilon": 0.001, "center": true, "scale": true, "beta_initializer": {"class_name": "Zeros", "config": {}}, "gamma_initializer": {"class_name": "Ones", "config": {}}, "moving_mean_initializer": {"class_name": "Zeros", "config": {}}, "moving_variance_initializer": {"class_name": "Ones", "config": {}}, "beta_regularizer": null, "gamma_regularizer": null, "beta_constraint": null, "gamma_constraint": null}, "inbound_nodes": [[["conv3d_34", 0, 0, {}]]]}, {"name": "activation_25", "class_name": "Activation", "config": {"name": "activation_25", "trainable": true, "activation": "selu"}, "inbound_nodes": [[["batch_normalization_33", 0, 0, {}]]]}, {"name": "conv3d_36", "class_name": "Conv3D", "config": {"name": "conv3d_36", "trainable": true, "filters": 144, "kernel_size": [1, 1, 1], "strides": [1, 1, 1], "padding": "valid", "data_format": "channels_last", "dilation_rate": [1, 1, 1], "activation": "linear", "use_bias": true, "kernel_initializer": {"class_name": "VarianceScaling", "config": {"scale": 1.0, "mode": "fan_avg", "distribution": "uniform", "seed": null}}, "bias_initializer": {"class_name": "Zeros", "config": {}}, "kernel_regularizer": null, "bias_regularizer": null, "activity_regularizer": null, "kernel_constraint": null, "bias_constraint": null}, "inbound_nodes": [[["concatenate_2", 0, 0, {}]]]}, {"name": "conv3d_35", "class_name": "Conv3D", "config": {"name": "conv3d_35", "trainable": true, "filters": 144, "kernel_size": [1, 1, 1], "strides": [1, 1, 1], "padding": "valid", "data_format": "channels_last", "dilation_rate": [1, 1, 1], "activation": "linear", "use_bias": true, "kernel_initializer": {"class_name": "VarianceScaling", "config": {"scale": 1.0, "mode": "fan_avg", "distribution": "uniform", "seed": null}}, "bias_initializer": {"class_name": "Zeros", "config": {}}, "kernel_regularizer": null, "bias_regularizer": null, "activity_regularizer": null, "kernel_constraint": null, "bias_constraint": null}, "inbound_nodes": [[["activation_25", 0, 0, {}]]]}, {"name": "batch_normalization_35", "class_name": "BatchNormalization", "config": {"name": "batch_normalization_35", "trainable": true, "axis": -1, "momentum": 0.99, "epsilon": 0.001, "center": true, "scale": true, "beta_initializer": {"class_name": "Zeros", "config": {}}, "gamma_initializer": {"class_name": "Ones", "config": {}}, "moving_mean_initializer": {"class_name": "Zeros", "config": {}}, "moving_variance_initializer": {"class_name": "Ones", "config": {}}, "beta_regularizer": null, "gamma_regularizer": null, "beta_constraint": null, "gamma_constraint": null}, "inbound_nodes": [[["conv3d_36", 0, 0, {}]]]}, {"name": "batch_normalization_34", "class_name": "BatchNormalization", "config": {"name": "batch_normalization_34", "trainable": true, "axis": -1, "momentum": 0.99, "epsilon": 0.001, "center": true, "scale": true, "beta_initializer": {"class_name": "Zeros", "config": {}}, "gamma_initializer": {"class_name": "Ones", "config": {}}, "moving_mean_initializer": {"class_name": "Zeros", "config": {}}, "moving_variance_initializer": {"class_name": "Ones", "config": {}}, "beta_regularizer": null, "gamma_regularizer": null, "beta_constraint": null, "gamma_constraint": null}, "inbound_nodes": [[["conv3d_35", 0, 0, {}]]]}, {"name": "activation_26", "class_name": "Activation", "config": {"name": "activation_26", "trainable": true, "activation": "selu"}, "inbound_nodes": [[["add_5", 8, 0, {}]]]}, {"name": "up_sampling3d_2", "class_name": "UpSampling3D", "config": {"name": "up_sampling3d_2", "trainable": true, "size": [2, 2, 2], "data_format": "channels_last"}, "inbound_nodes": [[["activation_26", 0, 0, {}]]]}, {"name": "conv3d_37", "class_name": "Conv3D", "config": {"name": "conv3d_37", "trainable": true, "filters": 72, "kernel_size": [3, 3, 3], "strides": [1, 1, 1], "padding": "same", "data_format": "channels_last", "dilation_rate": [1, 1, 1], "activation": "linear", "use_bias": true, "kernel_initializer": {"class_name": "VarianceScaling", "config": {"scale": 1.0, "mode": "fan_avg", "distribution": "uniform", "seed": null}}, "bias_initializer": {"class_name": "Zeros", "config": {}}, "kernel_regularizer": null, "bias_regularizer": null, "activity_regularizer": null, "kernel_constraint": null, "bias_constraint": null}, "inbound_nodes": [[["up_sampling3d_2", 0, 0, {}]]]}, {"name": "concatenate_3", "class_name": "Concatenate", "config": {"name": "concatenate_3", "trainable": true, "axis": -1}, "inbound_nodes": [[["conv3d_37", 0, 0, {}], ["activation_14", 0, 0, {}]]]}, {"name": "conv3d_38", "class_name": "Conv3D", "config": {"name": "conv3d_38", "trainable": true, "filters": 18, "kernel_size": [1, 1, 1], "strides": [1, 1, 1], "padding": "valid", "data_format": "channels_last", "dilation_rate": [1, 1, 1], "activation": "linear", "use_bias": true, "kernel_initializer": {"class_name": "VarianceScaling", "config": {"scale": 1.0, "mode": "fan_avg", "distribution": "uniform", "seed": null}}, "bias_initializer": {"class_name": "Zeros", "config": {}}, "kernel_regularizer": null, "bias_regularizer": null, "activity_regularizer": null, "kernel_constraint": null, "bias_constraint": null}, "inbound_nodes": [[["concatenate_3", 0, 0, {}]]]}, {"name": "batch_normalization_36", "class_name": "BatchNormalization", "config": {"name": "batch_normalization_36", "trainable": true, "axis": -1, "momentum": 0.99, "epsilon": 0.001, "center": true, "scale": true, "beta_initializer": {"class_name": "Zeros", "config": {}}, "gamma_initializer": {"class_name": "Ones", "config": {}}, "moving_mean_initializer": {"class_name": "Zeros", "config": {}}, "moving_variance_initializer": {"class_name": "Ones", "config": {}}, "beta_regularizer": null, "gamma_regularizer": null, "beta_constraint": null, "gamma_constraint": null}, "inbound_nodes": [[["conv3d_38", 0, 0, {}]]]}, {"name": "activation_27", "class_name": "Activation", "config": {"name": "activation_27", "trainable": true, "activation": "selu"}, "inbound_nodes": [[["batch_normalization_36", 0, 0, {}]]]}, {"name": "conv3d_39", "class_name": "Conv3D", "config": {"name": "conv3d_39", "trainable": true, "filters": 18, "kernel_size": [3, 3, 3], "strides": [1, 1, 1], "padding": "same", "data_format": "channels_last", "dilation_rate": [1, 1, 1], "activation": "linear", "use_bias": true, "kernel_initializer": {"class_name": "VarianceScaling", "config": {"scale": 1.0, "mode": "fan_avg", "distribution": "uniform", "seed": null}}, "bias_initializer": {"class_name": "Zeros", "config": {}}, "kernel_regularizer": null, "bias_regularizer": null, "activity_regularizer": null, "kernel_constraint": null, "bias_constraint": null}, "inbound_nodes": [[["activation_27", 0, 0, {}]]]}, {"name": "batch_normalization_37", "class_name": "BatchNormalization", "config": {"name": "batch_normalization_37", "trainable": true, "axis": -1, "momentum": 0.99, "epsilon": 0.001, "center": true, "scale": true, "beta_initializer": {"class_name": "Zeros", "config": {}}, "gamma_initializer": {"class_name": "Ones", "config": {}}, "moving_mean_initializer": {"class_name": "Zeros", "config": {}}, "moving_variance_initializer": {"class_name": "Ones", "config": {}}, "beta_regularizer": null, "gamma_regularizer": null, "beta_constraint": null, "gamma_constraint": null}, "inbound_nodes": [[["conv3d_39", 0, 0, {}]]]}, {"name": "activation_28", "class_name": "Activation", "config": {"name": "activation_28", "trainable": true, "activation": "selu"}, "inbound_nodes": [[["batch_normalization_37", 0, 0, {}]]]}, {"name": "conv3d_41", "class_name": "Conv3D", "config": {"name": "conv3d_41", "trainable": true, "filters": 72, "kernel_size": [1, 1, 1], "strides": [1, 1, 1], "padding": "valid", "data_format": "channels_last", "dilation_rate": [1, 1, 1], "activation": "linear", "use_bias": true, "kernel_initializer": {"class_name": "VarianceScaling", "config": {"scale": 1.0, "mode": "fan_avg", "distribution": "uniform", "seed": null}}, "bias_initializer": {"class_name": "Zeros", "config": {}}, "kernel_regularizer": null, "bias_regularizer": null, "activity_regularizer": null, "kernel_constraint": null, "bias_constraint": null}, "inbound_nodes": [[["concatenate_3", 0, 0, {}]]]}, {"name": "conv3d_40", "class_name": "Conv3D", "config": {"name": "conv3d_40", "trainable": true, "filters": 72, "kernel_size": [1, 1, 1], "strides": [1, 1, 1], "padding": "valid", "data_format": "channels_last", "dilation_rate": [1, 1, 1], "activation": "linear", "use_bias": true, "kernel_initializer": {"class_name": "VarianceScaling", "config": {"scale": 1.0, "mode": "fan_avg", "distribution": "uniform", "seed": null}}, "bias_initializer": {"class_name": "Zeros", "config": {}}, "kernel_regularizer": null, "bias_regularizer": null, "activity_regularizer": null, "kernel_constraint": null, "bias_constraint": null}, "inbound_nodes": [[["activation_28", 0, 0, {}]]]}, {"name": "batch_normalization_39", "class_name": "BatchNormalization", "config": {"name": "batch_normalization_39", "trainable": true, "axis": -1, "momentum": 0.99, "epsilon": 0.001, "center": true, "scale": true, "beta_initializer": {"class_name": "Zeros", "config": {}}, "gamma_initializer": {"class_name": "Ones", "config": {}}, "moving_mean_initializer": {"class_name": "Zeros", "config": {}}, "moving_variance_initializer": {"class_name": "Ones", "config": {}}, "beta_regularizer": null, "gamma_regularizer": null, "beta_constraint": null, "gamma_constraint": null}, "inbound_nodes": [[["conv3d_41", 0, 0, {}]]]}, {"name": "batch_normalization_38", "class_name": "BatchNormalization", "config": {"name": "batch_normalization_38", "trainable": true, "axis": -1, "momentum": 0.99, "epsilon": 0.001, "center": true, "scale": true, "beta_initializer": {"class_name": "Zeros", "config": {}}, "gamma_initializer": {"class_name": "Ones", "config": {}}, "moving_mean_initializer": {"class_name": "Zeros", "config": {}}, "moving_variance_initializer": {"class_name": "Ones", "config": {}}, "beta_regularizer": null, "gamma_regularizer": null, "beta_constraint": null, "gamma_constraint": null}, "inbound_nodes": [[["conv3d_40", 0, 0, {}]]]}, {"name": "activation_29", "class_name": "Activation", "config": {"name": "activation_29", "trainable": true, "activation": "selu"}, "inbound_nodes": [[["add_5", 9, 0, {}]]]}, {"name": "up_sampling3d_3", "class_name": "UpSampling3D", "config": {"name": "up_sampling3d_3", "trainable": true, "size": [2, 2, 2], "data_format": "channels_last"}, "inbound_nodes": [[["activation_29", 0, 0, {}]]]}, {"name": "conv3d_42", "class_name": "Conv3D", "config": {"name": "conv3d_42", "trainable": true, "filters": 36, "kernel_size": [3, 3, 3], "strides": [1, 1, 1], "padding": "same", "data_format": "channels_last", "dilation_rate": [1, 1, 1], "activation": "linear", "use_bias": true, "kernel_initializer": {"class_name": "VarianceScaling", "config": {"scale": 1.0, "mode": "fan_avg", "distribution": "uniform", "seed": null}}, "bias_initializer": {"class_name": "Zeros", "config": {}}, "kernel_regularizer": null, "bias_regularizer": null, "activity_regularizer": null, "kernel_constraint": null, "bias_constraint": null}, "inbound_nodes": [[["up_sampling3d_3", 0, 0, {}]]]}, {"name": "concatenate_4", "class_name": "Concatenate", "config": {"name": "concatenate_4", "trainable": true, "axis": -1}, "inbound_nodes": [[["conv3d_42", 0, 0, {}], ["activation_8", 0, 0, {}]]]}, {"name": "conv3d_43", "class_name": "Conv3D", "config": {"name": "conv3d_43", "trainable": true, "filters": 9, "kernel_size": [1, 1, 1], "strides": [1, 1, 1], "padding": "valid", "data_format": "channels_last", "dilation_rate": [1, 1, 1], "activation": "linear", "use_bias": true, "kernel_initializer": {"class_name": "VarianceScaling", "config": {"scale": 1.0, "mode": "fan_avg", "distribution": "uniform", "seed": null}}, "bias_initializer": {"class_name": "Zeros", "config": {}}, "kernel_regularizer": null, "bias_regularizer": null, "activity_regularizer": null, "kernel_constraint": null, "bias_constraint": null}, "inbound_nodes": [[["concatenate_4", 0, 0, {}]]]}, {"name": "batch_normalization_40", "class_name": "BatchNormalization", "config": {"name": "batch_normalization_40", "trainable": true, "axis": -1, "momentum": 0.99, "epsilon": 0.001, "center": true, "scale": true, "beta_initializer": {"class_name": "Zeros", "config": {}}, "gamma_initializer": {"class_name": "Ones", "config": {}}, "moving_mean_initializer": {"class_name": "Zeros", "config": {}}, "moving_variance_initializer": {"class_name": "Ones", "config": {}}, "beta_regularizer": null, "gamma_regularizer": null, "beta_constraint": null, "gamma_constraint": null}, "inbound_nodes": [[["conv3d_43", 0, 0, {}]]]}, {"name": "activation_30", "class_name": "Activation", "config": {"name": "activation_30", "trainable": true, "activation": "selu"}, "inbound_nodes": [[["batch_normalization_40", 0, 0, {}]]]}, {"name": "conv3d_44", "class_name": "Conv3D", "config": {"name": "conv3d_44", "trainable": true, "filters": 9, "kernel_size": [3, 3, 3], "strides": [1, 1, 1], "padding": "same", "data_format": "channels_last", "dilation_rate": [1, 1, 1], "activation": "linear", "use_bias": true, "kernel_initializer": {"class_name": "VarianceScaling", "config": {"scale": 1.0, "mode": "fan_avg", "distribution": "uniform", "seed": null}}, "bias_initializer": {"class_name": "Zeros", "config": {}}, "kernel_regularizer": null, "bias_regularizer": null, "activity_regularizer": null, "kernel_constraint": null, "bias_constraint": null}, "inbound_nodes": [[["activation_30", 0, 0, {}]]]}, {"name": "batch_normalization_41", "class_name": "BatchNormalization", "config": {"name": "batch_normalization_41", "trainable": true, "axis": -1, "momentum": 0.99, "epsilon": 0.001, "center": true, "scale": true, "beta_initializer": {"class_name": "Zeros", "config": {}}, "gamma_initializer": {"class_name": "Ones", "config": {}}, "moving_mean_initializer": {"class_name": "Zeros", "config": {}}, "moving_variance_initializer": {"class_name": "Ones", "config": {}}, "beta_regularizer": null, "gamma_regularizer": null, "beta_constraint": null, "gamma_constraint": null}, "inbound_nodes": [[["conv3d_44", 0, 0, {}]]]}, {"name": "activation_31", "class_name": "Activation", "config": {"name": "activation_31", "trainable": true, "activation": "selu"}, "inbound_nodes": [[["batch_normalization_41", 0, 0, {}]]]}, {"name": "conv3d_46", "class_name": "Conv3D", "config": {"name": "conv3d_46", "trainable": true, "filters": 36, "kernel_size": [1, 1, 1], "strides": [1, 1, 1], "padding": "valid", "data_format": "channels_last", "dilation_rate": [1, 1, 1], "activation": "linear", "use_bias": true, "kernel_initializer": {"class_name": "VarianceScaling", "config": {"scale": 1.0, "mode": "fan_avg", "distribution": "uniform", "seed": null}}, "bias_initializer": {"class_name": "Zeros", "config": {}}, "kernel_regularizer": null, "bias_regularizer": null, "activity_regularizer": null, "kernel_constraint": null, "bias_constraint": null}, "inbound_nodes": [[["concatenate_4", 0, 0, {}]]]}, {"name": "conv3d_45", "class_name": "Conv3D", "config": {"name": "conv3d_45", "trainable": true, "filters": 36, "kernel_size": [1, 1, 1], "strides": [1, 1, 1], "padding": "valid", "data_format": "channels_last", "dilation_rate": [1, 1, 1], "activation": "linear", "use_bias": true, "kernel_initializer": {"class_name": "VarianceScaling", "config": {"scale": 1.0, "mode": "fan_avg", "distribution": "uniform", "seed": null}}, "bias_initializer": {"class_name": "Zeros", "config": {}}, "kernel_regularizer": null, "bias_regularizer": null, "activity_regularizer": null, "kernel_constraint": null, "bias_constraint": null}, "inbound_nodes": [[["activation_31", 0, 0, {}]]]}, {"name": "batch_normalization_43", "class_name": "BatchNormalization", "config": {"name": "batch_normalization_43", "trainable": true, "axis": -1, "momentum": 0.99, "epsilon": 0.001, "center": true, "scale": true, "beta_initializer": {"class_name": "Zeros", "config": {}}, "gamma_initializer": {"class_name": "Ones", "config": {}}, "moving_mean_initializer": {"class_name": "Zeros", "config": {}}, "moving_variance_initializer": {"class_name": "Ones", "config": {}}, "beta_regularizer": null, "gamma_regularizer": null, "beta_constraint": null, "gamma_constraint": null}, "inbound_nodes": [[["conv3d_46", 0, 0, {}]]]}, {"name": "batch_normalization_42", "class_name": "BatchNormalization", "config": {"name": "batch_normalization_42", "trainable": true, "axis": -1, "momentum": 0.99, "epsilon": 0.001, "center": true, "scale": true, "beta_initializer": {"class_name": "Zeros", "config": {}}, "gamma_initializer": {"class_name": "Ones", "config": {}}, "moving_mean_initializer": {"class_name": "Zeros", "config": {}}, "moving_variance_initializer": {"class_name": "Ones", "config": {}}, "beta_regularizer": null, "gamma_regularizer": null, "beta_constraint": null, "gamma_constraint": null}, "inbound_nodes": [[["conv3d_45", 0, 0, {}]]]}, {"name": "activation_32", "class_name": "Activation", "config": {"name": "activation_32", "trainable": true, "activation": "selu"}, "inbound_nodes": [[["add_5", 10, 0, {}]]]}, {"name": "conv3d_47", "class_name": "Conv3D", "config": {"name": "conv3d_47", "trainable": true, "filters": 1, "kernel_size": [1, 1, 1], "strides": [1, 1, 1], "padding": "valid", "data_format": "channels_last", "dilation_rate": [1, 1, 1], "activation": "linear", "use_bias": true, "kernel_initializer": {"class_name": "VarianceScaling", "config": {"scale": 1.0, "mode": "fan_avg", "distribution": "uniform", "seed": null}}, "bias_initializer": {"class_name": "Zeros", "config": {}}, "kernel_regularizer": null, "bias_regularizer": null, "activity_regularizer": null, "kernel_constraint": null, "bias_constraint": null}, "inbound_nodes": [[["activation_32", 0, 0, {}]]]}, {"name": "batch_normalization_44", "class_name": "BatchNormalization", "config": {"name": "batch_normalization_44", "trainable": true, "axis": -1, "momentum": 0.99, "epsilon": 0.001, "center": true, "scale": true, "beta_initializer": {"class_name": "Zeros", "config": {}}, "gamma_initializer": {"class_name": "Ones", "config": {}}, "moving_mean_initializer": {"class_name": "Zeros", "config": {}}, "moving_variance_initializer": {"class_name": "Ones", "config": {}}, "beta_regularizer": null, "gamma_regularizer": null, "beta_constraint": null, "gamma_constraint": null}, "inbound_nodes": [[["conv3d_47", 0, 0, {}]]]}, {"name": "activation_33", "class_name": "Activation", "config": {"name": "activation_33", "trainable": true, "activation": "sigmoid"}, "inbound_nodes": [[["batch_normalization_44", 0, 0, {}]]]}], "input_layers": [["input_1", 0, 0]], "output_layers": [["activation_33", 0, 0]]}, "keras_version": "2.2.4", "backend": "tensorflow"}